best_model.pth (torch, 96994 bytes, 35 tensors)

f.conv0.weight f4 [30, 15, 1]
00000000: 6c2a 6a3c 48af cc3c 8278 8f3c c10f 813c
00000010: 36cb fd3b df1e 8fbb 7c2e 98b9 dfd9 50bb
00000020: 658c 3d3c 4794 29bc 8885 c1b8 a9f9 23bc
00000030: 105b 0fbc 144d 8dbc dc04 b6bb 75e0 293c
00000040: 2da6 ba3c 2e53 223d 7e22 af3b 3712 6aba
00000050: 5b44 0aba 05a1 b5bb 4bc5 a4bc de91 2abb
00000060: 46ef 17bd 512f 02bd e753 ecbc 10da 94bc
00000070: ad69 d2bc 41e9 62bd a473 ab3c a3a3 cc3c
00000080: 5b53 693c 727c 773c 1013 633c 0ed8 053b
00000090: 56aa 933c 84d0 183d 1dc3 503c da40 3e3c
000000a0: f05e 043c 2852 7f3b f992 0c3d 7fbf 093d
000000b0: 2689 863c 808c 093d dabf 123c 30ff 4d3c
000000c0: 2186 a73c e0a3 a43c b6b0 d13a 8795 b23c
000000d0: e53a 8fbb a0e0 50bc 6e26 c8bb 06b1 32bc
000000e0: 3d8e bbbc 0702 0cbd 5fdf 4ebd 6432 46bd
000000f0: ea7b b03d cc45 603d b10b 423d bdf0 4c3d
00000100: 3f4f ff3c 9cf6 b03c d0dc a13c 1d07 84bb
00000110: e80f 183c cd8b debc 8737 e0bc 0f80 2cbd
00000120: 9d7e 50bd eedd 79bd cd8d b8bd 0a1a 0d3d
00000130: e46a 4e3d b55b d03c f9be 023d 4d5e ae3c
00000140: d3ce f23c 5d80 083c 6f0e 45bc ca2b 9f3b
00000150: c845 e1ba 9442 5bbc 964d 37bd 6c8f 25bd
00000160: c580 1cbd 8eaa 71bd 0aa7 4cbd e56f 77bd
00000170: 8071 39bd e6c6 e3bc c19d 15bd 3f52 77bc
00000180: 0f1a 23bc 018d b43b 7e57 043c f8b7 033d
00000190: a94b 4c3a e536 433d 3ea3 f23c 37be 433d
000001a0: 6892 a63d 5306 27bd 370a 87bc ecd9 21bc
000001b0: 6953 23bd ac2c 1dbc 8134 b5bc 3ec4 963b
000001c0: 69a1 62bc 1d7b d33b d4ac cc3c a50c e73b
000001d0: c386 ca3c d385 2f3c 225e cf3c e1c7 5b3d
000001e0: 0245 f53c 78a7 183d ba93 e83c d48e 943c
000001f0: d44a 343c f3e6 ab3c 2884 283c 49df 483c
00000200: b510 b1bc 3b89 82bc caf8 b5bc fdf7 7bbc
00000210: db8a 48bd b76b 17bd f7dd 34bd 5324 34bb
00000220: 3d32 83bc 4ceb 77bc 1d56 e8bb 5643 f23b
00000230: 509f 8cbc 26ff 673c c00e 5abc 94dc bb3c
00000240: c08e 253c a405 313c 6c7a 42bb 2c03 a73c
00000250: 67d8 e03c 1ee4 723c eda8 943b 79cb b33c
00000260: fde0 173c 14bb c83a b42e cb3c 8bac 873c
00000270: d2e3 9d3c 8d33 bf3c c5a8 c33c 6824 f23c
00000280: 0297 803c 5d98 803c d718 7f3c 27b4 9d3c
00000290: 3bbe 0c3d 0ba4 dd3c f3e9 6b3c c39b cf3c
000002a0: d1a4 133d 6879 4e3c abd6 c63c 41f4 0f3c
000002b0: e52a d7bb 43bb e1bb a36c 7dbc 01b3 8bbc
000002c0: d8f9 d4bc be0b e9bc 1f90 4dbd 8b4b 0dbd
000002d0: 4d7c 1b3d c904 eb3c 06dd 933b a2bd b83c
000002e0: a420 d13c 042c c03c b0bd ee39 f125 3f3c
000002f0: d0be 963c aed6 70bc 6ec3 a0bc 7598 18bd
00000300: 1761 bcbc 2233 77bd 26c7 4dbd 528a 113d
00000310: 027f 293d af40 593c 2514 e93c d15f 043c
00000320: 0c57 8a3c 0992 183c 3708 aabb cccd 18bc
00000330: c678 a9bc fa2f 47bc beba fabc 25ae 0ebd
00000340: b8fa 2dbd 6c09 2cbd bbdb d83c 4097 f63c
00000350: a5b3 833b 6515 abbb 3f6c 9fbb bc6f 263a
00000360: b74f 44bc 3046 a03b 2fcc b2bc eb82 c8bc
00000370: 57e4 e3bc 3008 95bc 1187 0fbd 8446 55bd
00000380: 3f96 53bd 6974 b6bc fa30 95bc a9e6 b3bc
00000390: bc31 85bc 7dd9 8cbc 3336 83bc 7f47 03bb
000003a0: 8287 843b 16cb 243c ecb9 dd3b 1da3 493c
000003b0: 3d9e 6c3c 4137 ba3c 24e0 4f3d ead0 663d
000003c0: 682a 2c3c ea21 0f3c f076 583c 68fb 84bb
000003d0: 1c4e a13c 9be7 86ba bdd6 7d3c d4a5 603c
000003e0: bed3 013d 54af 8c3c ef92 a23c 436e bf3c
000003f0: 218b 923c 2427 da3c 54c9 153c ef0c 443c
0.014292341 0.024985924 0.017513517 0.015754582 0.007745172 -0.004367694 -0.00029026333 -0.0031868143
0.011569117 -0.0103502935 -9.227829e-05 -0.010008254 -0.008749738 -0.017248668 -0.0055547785 0.010368456
0.022784317 0.039630108 0.005344688 -0.0008929106 -0.0005274468 -0.0055428767 -0.020113608 -0.0026026885
-0.037093423 -0.031783406 -0.028848602 -0.018170387 -0.025685156 -0.05539823 0.020929165 0.024980372
0.014241065 0.015105354 0.013859525 0.0020422968 0.018025558 0.03730823 0.012741831 0.0116121415
0.0080792755 0.003895888 0.03431985 0.03362989 0.01642282 0.033581257 0.008956874 0.0125730485
0.0204497 0.020097673 0.0015998099 0.021799816 -0.0043710344 -0.012748867 -0.006108097 -0.0109064635
-0.022894973 -0.03418162 -0.050505992 -0.0483879 0.08617385 0.054754063 0.04737443 0.050034273
0.031165717 0.021601968 0.019758612 -0.0040291683 0.009281136 -0.027166272 -0.027370228 -0.042114314
-0.050901998 -0.061002664 -0.09011421 0.03444866 0.050394908 0.025434354 0.031920407 0.0212852
0.029639637 0.008331385 -0.012027367 0.004857515 -0.0017186934 -0.013382573 -0.044751726 -0.04041998
-0.03820874 -0.059000544 -0.04996399 -0.060409445 -0.045274258 -0.027804803 -0.0365274 -0.015095293
-0.009954943 0.005509973 0.0080775 0.03215787 0.00077932567 0.047659773 0.029618856 0.047788825
0.081333935 -0.040777516 -0.016484363 -0.009878617 -0.039874468 -0.00959317 -0.022119762 0.0046010306
-0.0138324285 0.006453885 0.024984755 0.007051068 0.024722463 0.0107130585 0.02531344 0.053657416
0.029940132 0.037269086 0.028390754 0.018134512 0.011004169 0.020984149 0.010285415 0.012260267
-0.021614412 -0.015934577 -0.022213358 -0.015378949 -0.048960548 -0.03696796 -0.044156995 -0.0027487471
-0.016015166 -0.015131783 -0.0070903436 0.007393281 -0.01716581 0.014159953 -0.013309181 0.022932328
0.010104835 0.0108045675 -0.002967502 0.020387255 0.027446939 0.014824895 0.004536739 0.02194761
0.00926995 0.0015314543 0.024802543 0.016561767 0.019273672 0.023340011 0.023884187 0.029558375
0.015697006 0.015697652 0.015569887 0.019250942 0.034361105 0.02705576 0.01439904 0.025342828
0.036045853 0.012602188 0.024272284 0.008786262 -0.0065663927 -0.0068887784 -0.015467796 -0.01705313
-0.025998041 -0.028447982 -0.050186273 -0.03449587 0.03796034 0.028688805 0.004512432 0.022551361
0.02552826 0.023458488 0.00045536226 0.011666761 0.018401533 -0.014699621 -0.019624438 -0.03725477
-0.022995515 -0.0603515 -0.05023875 0.035532303 0.04138089 0.013260051 0.028451988 0.008079485
0.01688721 0.009312161 -0.0051889676 -0.00932641 -0.020687472 -0.012157435 -0.030606624 -0.034834046
-0.042475432 -0.042001173 0.026471963 0.030101418 0.004019218 -0.0052210563 -0.004865199 0.0006349047
-0.011981896 0.0048911795 -0.021825878 -0.024476489 -0.027818842 -0.01819238 -0.03504092 -0.052069202
-0.051656958 -0.022272306 -0.01821183 -0.021960573 -0.016259067 -0.01719355 -0.016017055 -0.0020031629
0.004044474 0.010058185 0.0067665484 0.012306956 0.014442024 0.022731425 0.050750867 0.05635158
0.010508157 0.008736113 0.013211951 -0.0040582903 0.019690566 -0.0010292412 0.015493092 0.0137114115
0.031696074 0.017173447 0.019845454 0.023368007 0.017888607 0.026629992 0.009142239 0.011965974

f.conv1.weight f4 [30, 30, 3]
00000000: 34c1 06bc 4672 8aba 73f2 c8bc 805b 2c3c
00000010: 94e0 ab3b c34a a83b a6cb aabb 8a11 3fbc
00000020: 60d7 bebc 0439 313b 182d 8ebb 6482 82bc
00000030: e949 e83b 5f9c 1e3b 7d81 6e3c 3f30 ffba
00000040: 6dfb b6bb b3e0 b2bb 0487 37bc 4c43 2ebc
00000050: 2f84 6b3b 91f3 3ebc b604 e0bb 39aa 973b
00000060: 3ff1 113c 9c7f 5abc 7bac 67bc 2fe5 eb3b
00000070: 178a 34bc d795 2cbc 360d 8cbc 5701 96bc
00000080: 095a e93b 56d4 cbbc 50da 8ebc 22d0 c53b
00000090: 0592 d1bb d596 3ebb 7b58 9bb9 a449 e3bb
000000a0: a22d 6fbc a864 1dbc b139 34bc 8bfe d33b
000000b0: 6034 bf3b e6e4 88bc 02a0 f23b 351e d5bb
000000c0: 48e0 76bc 3795 c9bb ac74 033c 1e7f 7bbc
000000d0: 4b3b a8bc 0835 9a38 439e 95bb c865 5ebc
000000e0: 05d6 f1bc 2a59 6539 e807 93bb 46cf 94bb
000000f0: 321c 79bc 8cd8 213a 78a2 8639 1436 15bc
00000100: 5a21 86bb 6d64 68bb 1979 c2bb 1292 433c
00000110: 2643 8639 100d e2bb 6ef6 3bbb 8daa 48bb
00000120: 6229 10bc 363e 96bc d735 1ebb 42d5 093c
00000130: da44 9cba d810 3bbc 9856 5dbb 359e a2bc
00000140: 2ef6 4cbc a8d0 62bc 3477 83bb 8fbf b33b
00000150: 7ffd b43b 2caa 063a 398a 833b 0e4e 853b
00000160: e75e 95bc 1ab3 553b 1418 b3bc 8517 bebc
00000170: fa9d 11bd f02d e1bc 810c 633c 78f2 1c3b
00000180: 61c1 adbc 62af a4bc d3c2 96bc 958c 0fbd
00000190: 707f aebc fe4a 3abc 5b16 84bc 5947 53bc
000001a0: d112 fabc 8ddd 1cbd 74db 22bc 756f d4bc
000001b0: 0077 90bc f41c 83bd 5b3b 58bc ebbb 49bc
000001c0: 169f 17bd c339 d7bc eda0 f3bc 7a6e fdbc
000001d0: aaa7 5f3b 4b8f 48bc 3f34 37bd 8d2f b5bc
000001e0: 4b2e 38bc d0f3 e3bc 313f f2bb 9d23 d8bc
000001f0: 33de a1bc d36f faba 3bfc aabc 8ac5 f0bc
00000200: 879e a9bc 6d2c 07bd a580 773b 1d03 63bc
00000210: edfd cbbc a06c 30bc b15c b5bb 65e0 c5bc
00000220: 65bc 0dbd cbb0 52bc 6f98 0ebc eef0 0cbc
00000230: dc04 c6bb 4f74 9cbc 5906 fabc c093 34bc
00000240: 8bd5 49bd 41c5 83bb 7c50 3fbc eedc dabc
00000250: cf4d 2cbb 3db7 c1bc 8d31 a53b 22c2 53bd
00000260: 9488 55bc 08b8 e0bc 4491 02bc dfa6 bfbc
00000270: f244 fcbb 5836 8cbc 29d9 97bc bbe4 96bc
00000280: 3fef e6bc b550 94bc 2999 28bd 99bd ae3c
00000290: c18c 5b3c a282 28bd 8f62 bfbb e6dc 7cbb
000002a0: 6d80 f7bc f89a 08bc 0d75 86bc a782 44bd
000002b0: 33e3 97ba 557c 713b 0666 44b9 c4e6 cbbc
000002c0: 7770 c4bc 2944 a3bc 5ae0 923b ad33 c6bc
000002d0: 0b21 c3bb db58 3dbc f1d5 e9bc 012c e5bc
000002e0: c198 80bc 6c87 58ba d7a1 6fbd 25df 1abc
000002f0: a05f b1ba 6ecb 1fbd 5778 45bd 2c02 30bb
00000300: fc3e 19bc 8b12 9abc 5ed1 e13c 2894 e4bc
00000310: c21c e4bc 4e71 71bc b01e bd3b 447d 3b3b
00000320: d7cf e2bc d215 a8bc 6628 3ebc 858d c0bc
00000330: 1500 e5bc 4d49 50bd 7269 f3bb e92c 05bd
00000340: 9d6f 07bc 1137 cebc f6f0 86bb b8b7 a9bc
00000350: 4741 56bc 5e4e d3bc d8cb babc e0d5 06bc
00000360: 9bcd cfbc 23a5 35bd fa53 9ebc e91e cabc
00000370: 282f 4bbc dfa4 57bc 478c eebc bef0 cdbc
00000380: e5e4 9fbb c6e9 02bd 3f81 96bc eaf7 04bd
00000390: 2418 70bd e8ce e6bc bb1b 5cbc f02f 4fbc
000003a0: 4c74 a0bc d715 a6b9 4647 83bc f079 e1bc
000003b0: 5386 1739 4e69 0dbd 7dad 06bd 3bd0 7bbc
000003c0: e142 f8bc e136 fabc 0be2 803c 0de1 1ebd
000003d0: c422 f4bb 7b96 2a3d e5aa 23bd 1b5e 85bc
000003e0: 6027 a4bb 252b 2fbb c888 61bb fdc0 cdbc
000003f0: 0a69 bdbc 49eb 23bd 25da 13bc df98 ddbc
-0.008224774 -0.0010562621 -0.024529671 0.010519862 0.0052452777 0.0051358654 -0.005212265 -0.0116618965
-0.023296058 0.002704204 -0.0043388717 -0.015931316 0.007088889 0.002420209 0.01455724 -0.0019469335
-0.0055841715 -0.005458915 -0.011201624 -0.010636162 0.0035936942 -0.01165475 -0.006836499 0.0046284464
0.008907615 -0.0133360885 -0.014140244 0.0071989517 -0.011019251 -0.0105337715 -0.017096143 -0.018311186
0.0071213287 -0.024881523 -0.017438084 0.0060367743 -0.0063955807 -0.0029081602 -0.00029629827 -0.006936269
-0.014598282 -0.009606518 -0.011000083 0.006469553 0.005835101 -0.01671071 0.0074043283 -0.006503845
-0.015068121 -0.006151821 0.008023422 -0.015350131 -0.020536086 7.35317e-05 -0.0045659854 -0.013574071
-0.029520998 0.00021872358 -0.0044870265 -0.0045413105 -0.015204476 0.00061739306 0.0002567952 -0.0091071315
-0.0040933313 -0.003546025 -0.005934846 0.011936681 0.000256085 -0.00689853 -0.002868082 -0.0030619234
-0.008798929 -0.018340211 -0.0024140978 0.008412661 -0.0011922375 -0.01141759 -0.0033773538 -0.01985083
-0.012509866 -0.013843693 -0.004012013 0.005485482 0.005523383 0.0005137052 0.00401428 0.0040681427
-0.01823373 0.0032607974 -0.021862067 -0.023204574 -0.03555105 -0.027487725 0.013857962 0.0023948234
-0.021210374 -0.02010316 -0.018403446 -0.03504618 -0.021301001 -0.011370419 -0.016123941 -0.012895429
-0.03052655 -0.038297225 -0.009940017 -0.025932053 -0.017634869 -0.06402007 -0.013197745 -0.01231287
-0.03701695 -0.02627266 -0.029739821 -0.030936468 0.0034127035 -0.012241195 -0.04472756 -0.0221174
-0.011241506 -0.02782622 -0.007392787 -0.02638417 -0.019759273 -0.0019106813 -0.020872226 -0.029391069
-0.020705475 -0.033001352 0.0037765887 -0.013855723 -0.024901355 -0.010768086 -0.0055347313 -0.024154851
-0.034603495 -0.012859534 -0.008703335 -0.008602364 -0.0060430598 -0.019098429 -0.030520605 -0.0110215545
-0.049275916 -0.004021317 -0.011676904 -0.026716676 -0.0026291495 -0.023646945 0.0050413073 -0.05169881
-0.013033051 -0.027431503 -0.007969204 -0.023395 -0.0076986486 -0.017115757 -0.018536167 -0.018419614
-0.028190253 -0.01810489 -0.04116169 0.021330642 0.013400258 -0.041140206 -0.0058406065 -0.0038583814
-0.030212605 -0.008337729 -0.016413236 -0.047976162 -0.0011588096 0.003684779 -0.00018730023 -0.024890311
-0.023979409 -0.019929962 0.004482311 -0.024194563 -0.0059548668 -0.011556829 -0.028544398 -0.027975084
-0.015697839 -0.00082599255 -0.058503952 -0.009452616 -0.0013532527 -0.039012365 -0.04821047 -0.0026856763
-0.009353396 -0.01880767 0.027565654 -0.027902678 -0.027845744 -0.014736487 0.0057714805 0.00286086
-0.027686996 -0.020518217 -0.011606311 -0.023504982 -0.02795414 -0.050851155 -0.0074283415 -0.032513533
-0.008266357 -0.025172742 -0.0041180803 -0.020717487 -0.013077087 -0.025794204 -0.022802278 -0.008229703
-0.025366595 -0.04434694 -0.019327153 -0.024672942 -0.01240138 -0.013161867 -0.029119624 -0.025139209
-0.0048795813 -0.031961225 -0.018372176 -0.03246299 -0.058616772 -0.028174832 -0.013434346 -0.012645707
-0.019586705 -0.0003167826 -0.016025197 -0.027523965 0.00014450522 -0.034524255 -0.032880295 -0.01536947
-0.030305328 -0.030543746 0.015732786 -0.038788844 -0.0074504334 0.041647416 -0.0399579 -0.016280225
-0.0050095767 -0.0026728597 -0.0034413803 -0.025116438 -0.023121376 -0.040019307 -0.009024178 -0.027050434

f.conv2.weight f4 [30, 30, 3]
00000000: f269 13bc c9c6 5d3b 2b24 423b 3d2f 90bb
00000010: 8c60 05bc 6371 9abc db86 d83b 697c 9abc
00000020: f28e 2dbc e8d8 5cbc 4bc8 653b 43a3 1ebd
00000030: 435f 2bbc c07e 50bc 3345 b6bc 5417 2cbc
00000040: f910 68bc 5e69 34bc ad6c c83a 9d5b bbbc
00000050: 25e6 e8ba dac7 23bc bf87 9b3a a2fd 23bc
00000060: c0b4 d3bb 5a49 3b3c 0e89 ccbc f3e8 4ebb
00000070: 7e1d 33bc e32c b4bb f935 0bbc 7430 9abc
00000080: 02c9 39ba 2eaf 01bc 194e 61bc ee44 ad3b
00000090: afcd 1bbc c7f3 32bc b642 37bc e775 923b
000000a0: f5f0 90bb 0193 8ebb be12 7cbc cce2 1fbc
000000b0: e026 6ebc c5e0 50bc 8008 9dbc fa11 84bc
000000c0: af31 e2bc 8364 94bc ed5f d7bc 83ba 9f3b
000000d0: 12f5 0e3b be0f 86bc bce8 8abc abf9 86bc
000000e0: 96f5 cdbc bcbc 21bc a1f1 b6bb 7cb1 62bc
000000f0: 9770 24bb 1685 8fbc 3e2a 77bc b2c3 21bc
00000100: 5942 ecbc 5b74 5ebb b2fd 87bc 5049 cabc
00000110: bfcc 67bc d784 9ebb c7a1 1dbc ca98 c5bc
00000120: 65b0 aebb f8a4 b73b ea31 01bc 44b4 ecbb
00000130: f991 84bc 3722 5fbc b68b f0bb d293 b6bb
00000140: 80d1 c3bc 5127 ccbc 9dd6 f63b 4c81 7abc
00000150: 421b cb3b a9d8 86bc 6a5a a5b9 43c9 b5bb
00000160: 4282 623c c0c0 de3a 18f9 083c 75ef 543c
00000170: 23c6 c43c 212e b93b 96f6 75bc 0e86 a13b
00000180: 08b6 f0bc 3bd7 1dbd 7a97 793b 447e 9bbb
00000190: ca3c d73b a481 ba3c c182 14bc 867b 89bb
000001a0: e453 933c f842 88bd 6eef 84bd 4199 19bd
000001b0: e1d6 a3bb 4b27 e93c 5be5 013c b4c6 1a3d
000001c0: 5834 053d 0a19 323d ea33 083c 2250 d13b
000001d0: c30b c1bb 364d 023d 5f0f 673d 46c2 593d
000001e0: b608 aabb 39aa eb3b 07c9 083b f704 973c
000001f0: 2626 0e3d f53c 403d 924a d63a 8b28 333d
00000200: fd1d b53c 67fd a73c 7343 f43c 3fe2 773c
00000210: be6e 8abc 3c8b 283c 11f5 1d3b 7a4f a33b
00000220: faa4 d83c fa5d 01bc 2e18 d13b afe1 0d3c
00000230: ba59 d6ba c57e bfbc 81f0 fa3c b231 043d
00000240: e967 d73c e004 423d 5fbc 1e3d d08c 1bba
00000250: c387 383d 48e6 8dbb 89f9 013d 0156 5d3d
00000260: a2c9 813d 198e aabb 6281 823b 00b0 113d
00000270: 119b 61bd b6d0 0ebc d3e4 693c 9668 6cbc
00000280: f5ab bebc 891f 2e3c 451e 203c 0682 753c
00000290: 775a b23c 6c49 c83c 8cba 7a3c 9a32 0c3c
000002a0: 5fef c83b 4832 363d 88d0 e43c f0d6 ea3b
000002b0: 6618 963c 443e 323c a48e 343c ebf1 47bc
000002c0: 6ba0 6e3c f0d3 bb3c e436 633b 7048 9f3c
000002d0: 75ff 65bb f04e 253c 6143 7fbc fa45 253c
000002e0: fff1 e2bb 28f3 0bbb bebb 60bc f1d8 9d3c
000002f0: ca28 b2ba bb00 70bc c6d3 283c f965 043b
00000300: 331d 853c fda0 01bc 3111 183c 2726 97bc
00000310: d005 153c 3835 71bc 3db4 dbba ddc9 953a
00000320: b7bc 9bbc 5bea c4bc 79c8 97ba b4fb c3bb
00000330: c0e2 37bc a0d0 903b c8e1 d23a 9c82 a2bc
00000340: 800b 3a3c 6c3a b3ba 424c 4fbc eb24 39bb
00000350: 2268 21bc d49a a9bc 09b0 b2bb 3d9b 12bc
00000360: 2122 17bc 3ddc b53c d3b8 a0ba dfc6 56bc
00000370: 1f53 6ebc 8420 4bbc 0a8e c9bc 32ab 6cba
00000380: ddc1 5dbc f08d 77bc 991a bdba b8cb 8e3b
00000390: 29bd d339 5a1a 893b 405d 43bb 7cda 11bd
000003a0: f9a2 8fbc 763b b3bc be21 b7ba a4f3 b3bb
000003b0: 02af e4ba c679 1dbd 1422 873b 82ed 813b
000003c0: d68e 8dbc 285a 31bc 2a82 8cbc 8449 83bc
000003d0: e2ee ebbc eef0 2ebb d052 a3bc 5fa8 c4bc
000003e0: 7b11 fdbc 8e25 84bb 77b0 b9bb 3c67 afbc
000003f0: 63d3 87b9 1082 24bc df59 34bc 56f4 a73a
-0.008997427 0.003384041 0.0029623609 -0.0044001625 -0.008140694 -0.018852895 0.006607873 -0.018858152
-0.010593163 -0.013479449 0.003506201 -0.038729917 -0.010459724 -0.012725532 -0.022249794 -0.010503609
-0.014164203 -0.01101145 0.0015291177 -0.022870833 -0.0017768784 -0.009996379 0.0011866017 -0.010009201
-0.006460756 0.011431063 -0.024967697 -0.0031571954 -0.010932324 -0.005498515 -0.008496755 -0.018821932
-0.00070871424 -0.007915301 -0.01375153 0.005287758 -0.009509488 -0.010922379 -0.011185339 0.0044696215
-0.0044232556 -0.0043510203 -0.015385328 -0.009758662 -0.014535636 -0.012748902 -0.019169092 -0.016121853
-0.027611582 -0.018114334 -0.026290858 0.004874529 0.0021813554 -0.016364928 -0.01695668 -0.016476473
-0.025141519 -0.009871658 -0.0055830036 -0.013836261 -0.0025091523 -0.017519515 -0.015085755 -0.009873318
-0.02884023 -0.0033943865 -0.016600464 -0.024693161 -0.014147936 -0.004837613 -0.00962109 -0.024120707
-0.0053310865 0.0056043826 -0.007885436 -0.007223638 -0.016182886 -0.013618997 -0.0073408736 -0.005571821
-0.023903608 -0.024921091 0.007532908 -0.015289616 0.0061983177 -0.016460733 -0.00031538616 -0.005547674
0.013825001 0.00169947 0.00836017 0.012996544 0.02402026 0.005651251 -0.015012404 0.0049293106
-0.029383674 -0.038535338 0.0038084672 -0.0047452766 0.006568526 0.022766896 -0.009064377 -0.0041956333
0.017984338 -0.06653398 -0.0649098 -0.03749967 -0.004999981 0.02846112 0.007928218 0.037787154
0.032520622 0.04348091 0.0083131585 0.0063877264 -0.0058912947 0.031811915 0.056411143 0.05316379
-0.0051890267 0.007191923 0.0020871775 0.018434985 0.03470435 0.046933133 0.0016349128 0.043739837
0.022109026 0.020506574 0.029817319 0.015129625 -0.01689851 0.010287102 0.002410237 0.0049838396
0.026445854 -0.007895941 0.0063810563 0.008659764 -0.0016353645 -0.023375878 0.03063226 0.032273956
0.026294665 0.04736793 0.038753863 -0.00059337635 0.045051347 -0.00433043 0.031732116 0.054037098
0.063372865 -0.0052049276 0.003982709 0.035568237 -0.055079523 -0.008716753 0.014275747 -0.014429232
-0.023275355 0.010627636 0.009772842 0.014984613 0.021771653 0.024449073 0.015303265 0.008556986
0.006132051 0.044481546 0.027931467 0.007166736 0.018322181 0.010879103 0.011020336 -0.012203674
0.014564614 0.022928208 0.0034670169 0.01944372 -0.0035094891 0.010089621 -0.015580029 0.0100874845
-0.006925821 -0.002135465 -0.013716636 0.019268485 -0.0013592478 -0.014648612 0.010304397 0.0020202382
0.016249275 -0.007911918 0.0092814425 -0.01845081 0.009095624 -0.014722161 -0.0016762089 0.0011427958
-0.019010885 -0.02403753 -0.0011580131 -0.005980933 -0.011223495 0.0044194013 0.0016089017 -0.01983767
0.011355281 -0.0013674027 -0.012652459 -0.0028250765 -0.009851487 -0.02070371 -0.005453114 -0.0089481445
-0.009224446 0.022199744 -0.0012262113 -0.013108938 -0.014546185 -0.012397889 -0.024603862 -0.00090281956
-0.01353499 -0.015109524 -0.0014427482 0.0043577813 0.0004038599 0.0041840496 -0.002981022 -0.035608754
-0.017533766 -0.02187894 -0.0013971848 -0.0054916907 -0.0017447176 -0.03844621 0.0041239355 0.0039650807
-0.017280024 -0.010824718 -0.01715191 -0.016026266 -0.028800432 -0.0026693898 -0.019936949 -0.024006067
-0.030892124 -0.004032797 -0.005666788 -0.02141153 -0.00025906702 -0.010040775 -0.011007755 0.0012813907

f.norm1.weight f4 [60]
00000000: 307a 7b3f f00e 803f ba8f 803f 78d7 7d3f
00000010: 08cc 7d3f 226e 7d3f 11e6 7e3f 3fbd 873f
00000020: 94dd 7d3f 8e18 823f 5775 7e3f 6880 823f
00000030: 1066 7f3f 9c86 823f 5df5 833f 6d52 7f3f
00000040: eb4e 7e3f fc03 793f d38a 823f 5c8c 953f
00000050: 6e77 843f 80ca 6f3f 68d9 773f 2091 7d3f
00000060: aa0b 7c3f 0c69 7f3f 5b29 813f 7b61 7c3f
00000070: 75db 7a3f 3bc5 7f3f d94f 793f c816 7c3f
00000080: 65f9 7e3f dfb9 7d3f 4a06 863f dd0a 7b3f
00000090: f9a3 813f 63a2 7e3f a434 7d3f ae90 7a3f
000000a0: 104f 843f c585 803f 65c4 7f3f 779b 863f
000000b0: e1eb 7b3f 2b91 823f ddb5 7d3f 7afc 7f3f
000000c0: e395 7a3f dbee 7f3f df9f 7c3f f39e 7c3f
000000d0: fbe3 803f 4231 813f 17eb 813f e2c8 813f
000000e0: 47c3 7e3f 306a 7e3f 7f52 863f 1373 813f
0.9823332 1.0004559 1.0043862 0.99156904 0.9913945 0.98996174 0.99569803 1.0604628
0.99166226 1.0163743 0.99397796 1.0195436 0.9976511 1.019733 1.0309254 0.99735147
0.9933917 0.97271705 1.0198616 1.1683459 1.0348947 0.93668365 0.9681611 0.9904957
0.984553 0.99769664 1.0090746 0.98586243 0.97991115 0.99910325 0.9738746 0.9847226
0.99599296 0.9911174 1.0470669 0.9806345 1.0128165 0.9946653 0.9890845 0.97877014
1.0336628 1.0040823 0.9990905 1.0516194 0.984068 1.0200552 0.99105626 0.99994624
0.9788496 0.9997384 0.98681444 0.9868004 1.0069574 1.0093157 1.0149869 1.013943
0.9951672 0.9938078 1.0493926 1.0113243

f.norm1.bias f4 [60]
00000000: fda8 8cbb f1b1 f4bb 7eb7 aebc c4d2 92b7
00000010: bc0f b83a 19e9 8ebc f9c0 5bbb 88cc a7bc
00000020: 4a0a bfbb f860 4ebb fc86 adba d11b 8abb
00000030: 8a30 a2bc 4bb4 ca3b dccf a53c a87f e8b9
00000040: 6f4c 55bb 6e00 bbbb a73b d33b 05b2 833c
00000050: 935f 63b9 3a00 37bc f9c3 64bc 8d1f ee3b
00000060: 230f 5638 93df 8fbc 71ac f93b f614 5f3c
00000070: 7f86 273c dff9 c63b 5ab1 183c 840a 493b
00000080: 734c a8bc 144e 07bc 9a07 c1bc 643f bfbb
00000090: 692a 78bb d87b f7b9 e2c9 8a3b b0a2 353c
000000a0: 2a22 e03c 85a0 4abb 623b 153c 233c 1dbd
000000b0: 5e7f 60bc 4540 85bc d7dc 463c bfa9 92bc
000000c0: bf30 073c 471c c1bc e647 74bc f3ad 9dbb
000000d0: ed34 37bc 38c7 2f3c 95ab dabb 3d83 863c
000000e0: d06a 28bb c8f0 013c 9d65 523d d3a7 15bd
-0.004292606 -0.0074675013 -0.02132773 -1.7502702e-05 0.0014042775 -0.017445134 -0.0033531769 -0.02048327
-0.005830084 -0.0031490903 -0.0013239081 -0.0042147418 -0.019798536 0.0061860434 0.020240717 -0.000443456
-0.0032546779 -0.0057068383 0.00644632 0.016076097 -0.00021684011 -0.011169488 -0.013962739 0.0072669447
5.1035673e-05 -0.017562663 0.0076194336 0.013615837 0.010224937 0.0060722674 0.009319628 0.0030676434
-0.020544266 -0.008258361 -0.023563195 -0.005836414 -0.0037867075 -0.00047203782 0.004235492 0.011086151
0.02736004 -0.003091843 0.009108396 -0.03838743 -0.013702242 -0.016265998 0.012137613 -0.017903207
0.008251368 -0.023573054 -0.01490972 -0.004811996 -0.011182052 0.01072865 -0.006673286 0.016420001
-0.002569843 0.007930942 0.051366437 -0.036537003

f.norm2.weight f4 [60]
00000000: f72a 7c3f 61f3 783f 8ee6 7c3f 9fa4 753f
00000010: ce23 763f 35e1 7f3f 55a0 773f 3916 803f
00000020: 6664 7d3f b4f0 813f cae9 763f 2856 863f
00000030: 0597 803f 4df2 843f 2dbf 773f 6066 763f
00000040: 6aaf 783f e489 833f b10b 873f f681 853f
00000050: 1f8a 853f ba9f 813f 9496 863f aaee 813f
00000060: ba3c 7c3f 2c8f 7d3f 77d3 833f 352b 733f
00000070: 6bc4 743f d20e 813f 38a7 703f 243c 833f
00000080: d11a 7e3f 4dab 7c3f 6b86 853f 72e4 783f
00000090: 2869 833f 22f8 7d3f 8016 813f e1ed 753f
000000a0: 2b36 7d3f 09db 843f a802 723f 4fbf 873f
000000b0: 65d3 7a3f a201 863f 6dad 803f 1ed8 7d3f
000000c0: 3192 763f 11bf 7c3f fe10 7b3f 80b7 833f
000000d0: 63aa 7b3f f096 823f 3282 873f 29f4 803f
000000e0: 9801 783f 9ded 823f c7f2 713f 045a 803f
0.9850306 0.97246367 0.987893 0.95954317 0.96148384 0.99953014 0.9672902 1.0006782
0.9898132 1.0151582 0.96450484 1.0495043 1.0046088 1.0386444 0.96776086 0.9624996
0.9714266 1.0276456 1.0550443 1.0430286 1.0432776 1.012687 1.0514703 1.015096
0.9853016 0.9904659 1.0298909 0.94987804 0.9561221 1.0082648 0.94005156 1.0252728
0.9925967 0.98698884 1.0431646 0.9722358 1.0266466 0.99206746 1.0084991 0.960661
0.9891078 1.0379344 0.94535303 1.0605258 0.9797881 1.0469248 1.0052925 0.99157894
0.9631682 0.98729044 0.98072803 1.0290375 0.98306865 1.0202312 1.0586607 1.0074512
0.9687743 1.0228764 0.94511074 1.002747

f.norm2.bias f4 [60]
00000000: 9ef8 bdbc 2390 9fbc b39f 083b 2989 2fbb
00000010: 4f8b e3bb cb9f 44bd f8e2 2bbc 022d 5dbc
00000020: 359f a8bc 4aaf 85bb 88be bcbb 391c 47bc
00000030: 4a83 42bc f745 92bc 44fd abbb 14cb 2f3c
00000040: 8372 2c3c 5b61 62bc 3e79 10bc 1ac8 62bc
00000050: 2d44 d4bb f90e d4bc e242 b3bc 6f23 22bd
00000060: f25b 6c3b 1c8b 833c 70fd 1dba bf81 a9ba
00000070: 6697 a8ba d06a 51bc cbc0 f43b de31 74bc
00000080: d71e df3b e493 30bc 0bb6 ab3b c934 433b
00000090: 4acd 94bc abf3 3fbb 373a 90bc 8f96 08bd
000000a0: a41f 92bb dfaf 33bc dbdb 523b 1408 e83a
000000b0: a69e 963b 854d 09bc d93f 1fbd 7df1 553c
000000c0: c9fc 17bb 193a 803c 85be 333c 7e79 07bc
000000d0: 6ab8 113c 2ddc b1bc 0e84 34bc f6da f0bc
000000e0: 0871 f33b f2ba aebc 1335 563c ae34 3b3c
-0.023189839 -0.01947791 0.0020847141 -0.0026784635 -0.006944097 -0.048003953 -0.010491125 -0.0134995
-0.020583728 -0.004079734 -0.005760018 -0.012152725 -0.011872122 -0.017855627 -0.0052486975 0.01072957
0.010525349 -0.013817157 -0.008817969 -0.013841653 -0.0064778537 -0.025886046 -0.021882478 -0.039584573
0.0036065546 0.016057543 -0.000602684 -0.0012932344 -0.0012862503 -0.012781814 0.007469272 -0.014904467
0.0068090963 -0.010777447 0.005240207 0.00297861 -0.018164296 -0.0029289525 -0.017605884 -0.03334671
-0.0044593383 -0.010967224 0.00321745 0.0017702603 0.004596549 -0.0083802985 -0.03887925 0.013058064
-0.0023191443 0.015652703 0.010970716 -0.008268712 0.008894065 -0.021711433 -0.011017812 -0.029401284
0.007429246 -0.021329377 0.013074177 0.011426134

f.attention.query_proj.weight f4 [17, 17]
00000000: 8c91 7b3a a0c3 9cbd 90d7 9abd 60a5 95bd
00000010: fcbc 7dbd f1da 683d d328 6abd 016d 7bbd
00000020: 4ba5 84bd 6571 a5bd dd54 74bd 1ebd 5e3d
00000030: 6345 2ebd bbbf 9c3d b812 7dbd c590 3f3d
00000040: f18d 8ebd f3cb 09be 2cce ba3d c30c da3d
00000050: fa57 b83d b2ec d03d eea7 c03d b0e4 d23d
00000060: 652d ca3d bae9 c63d 4bd1 02be dd95 02be
00000070: 2b35 9e3d b04d 1bbe 3b66 cabd 1566 14be
00000080: 01dd c13d 173b 15be b210 87bd 78c3 59bc
00000090: 6821 f1bc 823a acbb b641 f83b ba74 c53d
000000a0: c090 b8bc cb43 55bc baef 03bc ca73 04be
000000b0: dcee 14be 6515 bc3d 55c1 b9bd 3890 4e3d
000000c0: 12c6 12be 7e1b 683d 1ab8 12be 4e11 9bbd
000000d0: 4a97 f13c 8145 513d 2a75 f73c 5e44 c13c
000000e0: 6839 943d 355f e83c 2f7c e03c f0d9 123d
000000f0: b8dd 17be 94ca 01be 8e14 933d aa5e 06be
00000100: 8d97 a23c afca 03be c77d 953d 0998 23be
00000110: bff3 80bd c382 afbc 4386 0d3c ec40 673c
00000120: 2c34 723c 7ce6 b33d 60be 1bbb c7ab 44bb
00000130: f1ac dc3b bcd6 16be 33f3 1dbe 0bda 9d3d
00000140: 8b64 a5bd 1637 143d 3c4f 0abe 32b0 093d
00000150: c5f9 0dbe df23 1dbd 88fb dd3d 21a8 a73d
00000160: 6e74 df3d 65b3 fc3d f9dd 9cbd 0718 cd3d
00000170: 2844 de3d 43f1 c43d 0593 423d 5067 f53b
00000180: df83 53bd 53df 213d 7121 e7bd 6a3d d73c
00000190: 666b c1bc 6488 353d 9269 67bd 5523 24bd
000001a0: 2f0d 13bd 415e 25bd fe4e 1cb9 28e8 b53d
000001b0: 7e7b cfbc 54e8 80bc 5607 b6bc ccf2 0abe
000001c0: b80a 0dbe d7c2 9b3d 0908 74bd a6b9 673d
000001d0: 2d10 febd 2f2e 633d 870f 07be 3268 16bd
000001e0: 89d0 4dbd fc8f 5abd 45f7 16bd 87c1 18bd
000001f0: fc1f c23d 4254 88bd 559d 48bd b403 0ebd
00000200: 6a94 d9bd 4c9a 09be 29db 6c3d b4fe 8dbd
00000210: 1f58 813d 8099 e0bd 9d6c 2e3d 1764 c8bd
00000220: 101a 38bd 1071 08bd bcaf 92b9 d5d7 0ebd
00000230: 50d6 963c c1f2 bf3d a721 80bc 3874 c9bc
00000240: 43f1 e2bc fe78 0ebe c8a9 21be ed8d ac3d
00000250: c9a0 a2bd f47d 653d 9663 0cbe 1723 063d
00000260: 2a4b f9bd 28a5 87bd 0cd6 cabb a47d 8dbc
00000270: d30c 7a3b 33f0 1bb9 4bad 8b3d b0be c73b
00000280: 3c72 5f38 2271 83bb 6ede efbd 6350 e3bd
00000290: 9995 5b3d 70ae e2bd dfc2 413d 17b9 03be
000002a0: fc00 213d d9d0 14be fb73 bebd 93e5 5e3d
000002b0: 8b31 943d 1102 923d 507b a03d 72e0 f33c
000002c0: 1274 ac3d 1c21 a23d 6902 613d 1a05 a4bd
000002d0: c2b1 94bd baf1 333d 2b87 b1bd a32f 40bd
000002e0: 0c13 d9bd 85c6 483d 75d9 cdbd 776d 6fbd
000002f0: 1ca1 43bc 62c4 e8b9 19ff 9abb 88bb 103d
00000300: 3df5 cf3d eb75 3ebc 159b 2b3c 0a70 893b
00000310: 7bf6 0fbe 6e30 03be 1c96 c33d 9d62 76bd
00000320: 9c47 2e3d 2c16 1abe 7a12 653d e1cc d8bd
00000330: 6eb3 39bc 3b7f 54bd c9d8 89bd eee9 73bd
00000340: baf5 10bd b070 903d 2f22 4abd fb26 5fbd
00000350: be3d 3abd f91f c4bd e7f6 9abd 05ad 843d
00000360: a953 11bd aea3 a63d 7eae d0bd 54f5 4b3d
00000370: a790 b9bd 9b86 54bc fba6 a9bc 02fb 8abb
00000380: 75b5 eabc ab40 83bc 58a4 883d d493 11bd
00000390: 0c98 b8bc 9d85 9abb d8a2 d1bd c23c d6bd
000003a0: a43b 893d 84ac 17bd adce 403d 972f b2bd
000003b0: c5a1 a43b 4afb 89bd 2e18 98bc 124e 76bd
000003c0: 9477 5dbd 4cbc 82bd 8c1e edbc 06fd a03d
000003d0: 3960 5fbd 19d8 85bd 66cd 48bd e882 c2bd
000003e0: 63e5 ddbd 423c b33d d971 4abd 652c 983d
000003f0: 3cd7 c4bd decb a63c a455 f0bd 57ef b4bd
0.00095965783 -0.076545 -0.075606465 -0.073069334 -0.061947808 0.056849424 -0.05716784 -0.06138325
-0.0647684 -0.08078269 -0.059651244 0.054379575 -0.04254664 0.07653757 -0.06178543 0.046768922
-0.06960667 -0.13456707 0.091213554 0.10646965 0.09001155 0.10201396 0.0940703 0.10297525
0.098719396 0.097125486 -0.12775151 -0.12752481 0.07724985 -0.15166354 -0.0988278 -0.14492066
0.09465981 -0.14573322 -0.06594981 -0.013291232 -0.029434875 -0.005255998 0.0075761927 0.096414044
-0.02252996 -0.013016651 -0.008052761 -0.12934795 -0.14544243 0.09183768 -0.09070078 0.050430506
-0.1433337 0.056666844 -0.14328042 -0.0757166 0.029491086 0.051091675 0.030207235 0.02359217
0.07237512 0.02836571 0.027402965 0.035852373 -0.14830673 -0.12674934 0.07181655 -0.13122049
0.019847656 -0.12870286 0.07299381 -0.15975966 -0.06296491 -0.021424657 0.0086379675 0.0141146
0.014782947 0.08784196 -0.0023764595 -0.0030009614 0.0067344834 -0.14730352 -0.15424804 0.07707604
-0.08075818 0.036185347 -0.13506788 0.0336153 -0.13864811 -0.038364287 0.108389914 0.08186365
0.10910879 0.12338904 -0.076595254 0.100143485 0.108528435 0.096163295 0.04750349 0.0074891225
-0.051639434 0.03951962 -0.11285675 0.026274402 -0.023610782 0.044319525 -0.056497164 -0.040072758
-0.035901245 -0.04037309 -0.00014906746 0.08882171 -0.02532744 -0.015735783 -0.022220295 -0.13569182
-0.1377362 0.07605522 -0.059577975 0.056573533 -0.12405429 0.055463966 -0.13189517 -0.036720462
-0.050247703 -0.05335997 -0.03685691 -0.037293937 0.09478757 -0.06656696 -0.04897817 -0.0346715
-0.10624011 -0.13437766 0.057826195 -0.069333464 0.06315636 -0.10966778 0.04258405 -0.097847156
-0.04494673 -0.03331095 -0.00027978222 -0.034873802 0.018412739 0.093724735 -0.015641047 -0.02459155
-0.027702933 -0.13913342 -0.15787423 0.08425508 -0.079408236 0.05602832 -0.13709864 0.032748308
-0.121725395 -0.06623298 -0.006190067 -0.017271824 0.0038154616 -0.00014871433 0.068201624 0.00609573
5.3273732e-05 -0.004011289 -0.11712347 -0.11099317 0.053609464 -0.110684276 0.047304984 -0.12863575
0.03930758 -0.14532794 -0.09299465 0.054418158 0.07236012 0.071293004 0.0783602 0.02977011
0.08420576 0.07916471 0.05493394 -0.080087855 -0.07260467 0.0439317 -0.08668359 -0.04692043
-0.10599336 0.049017448 -0.10051242 -0.058454003 -0.011940267 -0.00044396805 -0.004730117 0.035335094
0.10154197 -0.0116247935 0.010473986 0.0041942643 -0.14058869 -0.12811443 0.095501155 -0.06015264
0.04254876 -0.1504752 0.055925824 -0.105859526 -0.011334283 -0.05187915 -0.067308016 -0.059549265
-0.035390593 0.070527434 -0.049349006 -0.054480534 -0.04546904 -0.09576411 -0.07566624 0.06478313
-0.035480175 0.08136688 -0.10189532 0.04979451 -0.09060793 -0.012971546 -0.020709505 -0.0042413482
-0.028650979 -0.016022047 0.06671971 -0.03554137 -0.02253344 -0.004715635 -0.10236138 -0.104608074
0.06700829 -0.037029758 0.0470721 -0.08700483 0.0050241672 -0.06737383 -0.018566217 -0.060133047
-0.054069117 -0.06383571 -0.02894523 0.078607604 -0.054535124 -0.06535358 -0.04902401 -0.09497625
-0.10834768 0.08751728 -0.04942498 0.074303426 -0.09611365 0.020360883 -0.11735085 -0.08834713

f.attention.query_proj.bias f4 [17]
00000000: 995d 6e3c 1904 96be 6b6d 583d 4bd2 aabd
00000010: 5767 3b3e 298e b4be 5fad 2a3d 9332 263e
00000020: 6bbc 683d 2fc0 87bd 9445 223e 9dfb 3cbe
00000030: 0fcc 913e e52b b03d 6b01 363e 8f1c 7f3d
00000040: b10e d63d
0.014548683 -0.293 0.052838724 -0.083408915 0.1830114 -0.3526471 0.041669246 0.1623023
0.056820314 -0.06628453 0.15846854 -0.18455358 0.28475997 0.08602122 0.17773978 0.062283095
0.10452021

f.attention.key_proj.weight f4 [17, 17]
00000000: 1a1d 7b3b fd76 a73d f89e febc d2c0 f73d
00000010: 8390 163d 0fbf 743d 1441 e53d 4a13 01bd
00000020: e45f 273d 939c 2f3d d93b cd3d 5dfb ae3c
00000030: 06e5 2e3d cbcc 5d3d 9949 ee3b cfe9 c7bc
00000040: c370 bbba 5407 923e 867b 003e ae81 efbd
00000050: 297a 19be 26c9 af3b 4d95 48bc 851a 0dbd
00000060: 0c2b 333d c5b0 f73b 693b 9f3d c501 1bbd
00000070: a211 0b3d daef 6b3c 72e9 353c 464a 373d
00000080: 8987 933d 34f3 973d 501d 0fbe 9503 f3bd
00000090: 1db5 e6bb df2c 963d ec8c 963c 8b75 e83c
000000a0: 2089 fc3c 3002 97bd 3228 1ebc 6be4 cebc
000000b0: c101 dd3c b262 01bd c445 f63c 3ae2 ef3b
000000c0: ab93 76bc 1173 f9bc 1b97 9dbc 894d 013e
000000d0: 7e8a 813d acda 5ebc 831f bcbd 78fb 4abd
000000e0: 4c96 33bd 0f36 85bc db5c 3d3d 3b82 c8bc
000000f0: 375d a63c c0ce 40bc 9559 f43c a18b d1bc
00000100: 7380 1abd ecd4 e73b 1e9d 4f3d d4f1 c63c
00000110: 415c 8d3d 3a91 103e df90 bcbd 0104 3fbe
00000120: 08f7 18be 2256 2fbe b804 15be d37a 503c
00000130: 9595 febd e74d 34bb 1c49 03be d062 1bbd
00000140: 64da 09be e0df 2ebd 48a6 f6bd 3556 e9bb
00000150: c9c3 1ebd 8347 68be 7f62 3fbe ab2d 96bb
00000160: 6c94 253d 1e9f c4bc 8ad2 123b b0cd 4ebc
00000170: 37b5 81bd 8706 e3bc 5830 e7bc 6781 b7bc
00000180: ebb8 01bd c135 69bc ab57 0639 0d18 1cbd
00000190: 70ba bcbc b3ec 1cbc a755 9f3d c389 fd39
000001a0: b278 843c 243b 0bbe c2c2 97bd 8fb8 86bd
000001b0: 157e edbc 296f 203d 6058 4cbd 0288 7abd
000001c0: 06e9 2abd 9ea2 653c 5a56 92bd cf52 b6bd
000001d0: 4e18 fdbc 61c9 293d b76d a03d 67fc 1a3e
000001e0: 21b9 9a3d 0b34 aabd f125 f1bd faa9 1cbd
000001f0: 2072 0dbd 57db f33b cdfe a63d 0dcf cfbc
00000200: ca1d 823d 31ee 103c d025 3b3d 249d e93a
00000210: 5cf2 a23a 0cfc 0c3d ca5a ca3d e2b2 073d
00000220: 941e 2a3b b17f 813e 6dbe 89bd 97de 4c3c
00000230: d310 983d dd2e e03c 5976 84bd e662 d63d
00000240: 30cf 2cbd ea2b a63d 7c93 c6bd 1c15 ba3d
00000250: 5e3d 28bd 83f1 9e3c 34d8 463d ee3c 243d
00000260: f870 263d 17a1 2b3e 6d5e f03d bb4d 90bc
00000270: f621 9dbd e717 7abc 88eb 94bc 65ac eebc
00000280: be08 b43d 09dd 0abc caad 003d 0297 a3bc
00000290: cd0c 733d d3aa 05bc 05a8 473c 7bee 103d
000002a0: d027 463d 5945 423d a570 1f3e 0754 be3d
000002b0: 0e8a 523d 827b 6ebd 5e41 25bc e22e 6cbd
000002c0: 4a9b f2bc dbff cb3d 0efe 13bc bfa0 c03b
000002d0: 18ec 2fbd eb7f f23c eb37 c1bc 78ea c7bc
000002e0: c506 ce3c 323b 523d 3341 1a3d 25ea a8bd
000002f0: 7c51 e6bd cb82 823d cfc8 1b3e e115 0f3d
00000300: d3e5 473d 90a8 d53c c670 01be 2b06 573d
00000310: ae2f 89bd 11fa a63c 5cd0 86bd e8cf 223d
00000320: 522b cc3a a7da b0bb c7c9 8ebd 41cd c4bc
00000330: ab40 c13d ddfb b43d bfba 8b3b 5efb 1e3e
00000340: 10e8 8a3d 203e 163d bc8e 353e d102 d33c
00000350: bfe6 d03d b53a b4bd ac3b 1f3e 1d13 97bb
00000360: 0569 f43d 6694 52bc c473 b73b a456 b53c
00000370: ea19 583d f763 373d 53c8 163d 7ae0 ad3b
00000380: 4f87 52bd 1937 a93d ed3b ab3b ee43 c43c
00000390: 9427 063e d9e7 4f3c 13ea e13d 7ebf 3f3d
000003a0: abb5 063e 8c88 313c 5e07 cf3c d716 843d
000003b0: ece2 4bbc 96f3 b63a 7231 2bbe b9e3 ebbc
000003c0: 78a6 3abd 678d ea3d b4b5 1d3d 02e4 233d
000003d0: 04d1 203d c8c0 27bd 55d3 2f3c 8bf4 393c
000003e0: 6568 5e3d bdda d5bc 732f 8a3c 666a 113d
000003f0: dfa4 c5bb 5c35 9fbc 556b 23bd 4dd1 0bbe
0.0038316906 0.08176992 -0.031081662 0.120973244 0.03675891 0.05975252 0.11194053 -0.031512536
0.040862933 0.04287393 0.10021181 0.021360094 0.042698883 0.054150384 0.007271957 -0.02440348
-0.0014300573 0.28521216 0.1254712 -0.11694656 -0.14988007 0.005364555 -0.012242627 -0.03444912
0.043742225 0.0075589144 0.077750035 -0.037843484 0.033952363 0.014400447 0.011103021 0.044748567
0.07203586 0.07419434 -0.13976026 -0.118659176 -0.0070406334 0.07332777 0.018377744 0.028376361
0.030827105 -0.07373464 -0.009653138 -0.025255403 0.026978375 -0.031588264 0.030062564 0.0073206695
-0.015049855 -0.030450376 -0.019237092 0.12627234 0.063252434 -0.01360194 -0.09185698 -0.049556226
-0.043844506 -0.016261129 0.046231132 -0.024476161 0.02030812 -0.011768043 0.029827872 -0.025579276
-0.037720155 0.007074943 0.050686948 0.024285235 0.06902362 0.141179 -0.092073195 -0.18653871
-0.14937985 -0.17122701 -0.14552581 0.012724596 -0.12430874 -0.0027512254 -0.12820858 -0.03793603
-0.13462216 -0.042693973 -0.120434344 -0.0071208724 -0.038760934 -0.2268353 -0.18689917 -0.0045830808
0.04042475 -0.024001654 0.0022403323 -0.012622282 -0.06333392 -0.027713073 -0.028221294 -0.022400571
-0.031670492 -0.014234007 0.00012811895 -0.038108874 -0.02303812 -0.009577918 0.07780009 0.0004835856
0.016170833 -0.13596779 -0.07410194 -0.065781705 -0.028990785 0.03916851 -0.04988897 -0.061164863
-0.041726135 0.014015822 -0.071453765 -0.08902513 -0.030895378 0.041451816 0.078334264 0.15135346
0.07554842 -0.08310708 -0.11774815 -0.03824804 -0.034532666 0.007441919 0.08154068 -0.025367284
0.06353338 0.008845852 0.045690358 0.0017823321 0.0012431848 0.034420058 0.09880598 0.03312958
0.0025958167 0.25292733 -0.06725774 0.012504241 0.07425084 0.027366096 -0.064678855 0.10468082
-0.042189777 0.08113845 -0.09696099 0.090860575 -0.04107415 0.019402271 0.04854603 0.04009717
0.04063508 0.1676067 0.1173676 -0.01761519 -0.07672493 -0.015264488 -0.018178716 -0.029134938
0.0879073 -0.00847555 0.03141574 -0.019969467 0.05933838 -0.008158403 0.012186055 0.035383683
0.048377812 0.047429416 0.15570314 0.09293371 0.05140119 -0.058223255 -0.0100863855 -0.0576619
-0.029615063 0.0996091 -0.009032739 0.0058785374 -0.042949766 0.029602012 -0.023586234 -0.024403796
0.025149712 0.051325984 0.037659835 -0.082477845 -0.11246011 0.06372603 0.15213321 0.034932975
0.04880316 0.026081353 -0.12640676 0.052496117 -0.06698547 0.020382913 -0.0658271 0.039749056
0.0015576875 -0.005397159 -0.0697208 -0.024023654 0.094361626 0.088371016 0.004264205 0.15525576
0.06782544 0.03668034 0.1773023 0.025758179 0.10200261 -0.0880026 0.15550107 -0.004610433
0.119340934 -0.012852764 0.005598517 0.02213604 0.05275909 0.04477307 0.036812138 0.0053063007
-0.05139857 0.08262462 0.0052256496 0.023958173 0.13101035 0.012689554 0.11030974 0.04681348
0.13155238 0.010835778 0.025272068 0.06449669 -0.012444239 0.0013958092 -0.1671808 -0.02879511
-0.045568913 0.114527516 0.038503364 0.040012367 0.039261833 -0.040955335 0.010731538 0.0113498075
0.054298777 -0.02610528 0.016868329 0.03550186 -0.006031617 -0.019434623 -0.03989728 -0.1365406

f.attention.key_proj.bias f4 [17]
00000000: 01ad e83d 9907 54be 3c5c cf3d 0cb1 213e
00000010: 1a54 44be c5ce be3c 14dc 7fbd fa71 8a3e
00000020: 119d 58be f3a8 673e 04b2 c8bd 17c5 4e3e
00000030: 8995 d4bd c84a c73d 78d1 b93d 524a 153e
00000040: d144 623d
0.11361123 -0.20706023 0.10125014 0.15790194 -0.19172707 0.023291955 -0.062465742 0.27040082
-0.21153666 0.22623043 -0.09799579 0.20192371 -0.10380084 0.0973106 0.09073156 0.14579132
0.05524141

f.attention.value_proj.weight f4 [17, 17]
00000000: f244 493d 909a 96bb 8ba5 fdbb 9fce b3bc
00000010: 74a5 ce3c a915 a839 4d2f ea3c 32db 4b3d
00000020: 00e1 f73a 7f18 793d a736 913c 3ef1 413d
00000030: f946 583b 5aca 443c 9ec6 e539 8e41 113d
00000040: d5fc c23c 14ad 103d ac60 a83b 9f81 98bc
00000050: 9d63 16bc 8d14 453c 6eb9 14bc 986e 6d3d
00000060: 09d4 a43c 5397 0c3c 0e1e 483d eac1 0b3d
00000070: ceac 403d 7731 823b 30c9 9e3c 8267 ac3c
00000080: 6fd5 133d d732 323c 3310 333d 85f7 003a
00000090: 9d28 01b9 096b b4ba da53 dd3c b1eb 13bb
000000a0: ac16 e43c 8052 b23c 9911 8ebb 9432 493d
000000b0: 0455 b53a 4a04 203d 5d2a 4a3c 7656 9b3b
000000c0: 9c22 fd3c 4d1b 793c 0e6c ba3c 9601 213d
000000d0: 48da 0cbb e93e de3b 426b 5fbc 1764 4e3c
000000e0: 24a7 543c 81c4 fb3c 3b0d 8b3c 6f03 a23c
000000f0: 4918 383d 2d83 d83c 2bd2 453d 6c27 c93c
00000100: 6279 383c 48fc 213d 6339 ca3c 6a92 e53c
00000110: ca3a cf3c cf62 1f3b 1105 7abc a117 9a3c
00000120: 368f ee3c 0c99 5b3c 5f46 353d e3fe 6e3d
00000130: ba61 ed3c 58d3 8c3d c8a7 1f3d e5dd 473d
00000140: ea82 ca3c 45c5 113d 9251 163d 5cc2 2e3c
00000150: 61fd 963c a9dd d63c a1bc 053c db66 0d3b
00000160: 0c97 8d3c 3ebc 103d d9b7 193c 998b 0c3d
00000170: 8486 ef3c b4ca 9c3b 238d 493d 3da9 6c3c
00000180: eeb2 be3c 7c4f 24bc 0f3d 833c 1f8a 403d
00000190: d578 8b3c b0ee 313b 1317 103d 4f3c 15bc
000001a0: 973a f7bb d3ed 6f3b 8a10 193d 001d 803c
000001b0: 554c 153d 77bf 313d 3a51 643c 73cf 123d
000001c0: 999f 093d 0d4b 383d b339 a73c 0413 d53c
000001d0: 2a2a a83c 659d be3c e68f de3c f0c2 2e3d
000001e0: ef44 db3b dd56 97bc 601a 64bc 73d9 e73c
000001f0: c406 fbba b6bf 0c3d 4624 213d 3e50 553b
00000200: 95ef 223d 27ed ac3c 866c f13c c431 083c
00000210: 978e 463c 1cf9 fc3c 291a 093d a644 b03c
00000220: 5781 a83c 1e8e 113a 2497 f1bb eb42 51bb
00000230: 05e2 9a3c 9efb 803b a7bc 273d ff2a 1e3d
00000240: a828 83bb 719a 9a3d 11e9 4f3c 0103 383d
00000250: 0c24 acbb 4887 2c3c 80fb ef3c 58a7 893c
00000260: fe8a d33c 2bb6 a63c 493d 4b3b a126 92bc
00000270: 17ba 84bc 6149 703c a75e a63b c59a 373d
00000280: 065d 493d aa5d 3cbb 7e26 653d 9adc 0d3d
00000290: deee 133d fea1 063c ad0a 21bb efd4 f23c
000002a0: 4a1a 103d 540f 053d b04b b63c 43f2 d2bb
000002b0: 73c6 363b 43ae f9bc 0465 fe3c a67f 18bc
000002c0: 431e 0c3d 54e5 233d 84fa 063c 601d 2d3d
000002d0: 1e5b e73c 6d78 183d e30d 163d da9d 923c
000002e0: 8b69 6f3c 679b a83c 8633 983c f7e3 1a3d
000002f0: eb92 babc 3c12 05bc bdc5 adbb bf45 f63c
00000300: 6991 2dbc 7fde b93c dc03 243d 0735 81bb
00000310: fd80 1a3d 4416 c73c 026b 163d 28ad 793c
00000320: 6105 e0bb cf94 c33c a480 2e3d afe2 b53c
00000330: 7fb8 5d3d 117b 83bc 667e 183c 6093 9bbc
00000340: e37d 46bb 0b0f 773c f7b5 973c 586e 233d
00000350: 5bca 8b3b b0dc 333d 1f12 823c 90b7 503d
00000360: 6c48 263c 5acc 243c 2dfe 8a3b fb46 a23c
00000370: 8e18 bf3c 08d0 df3c 2058 663c f7f5 0e3b
00000380: 7ec9 c5bb 8d53 1c3c 6ca2 e3bb 4fde b23c
00000390: d3f1 e93c 48d6 503c a981 423d 7d60 633c
000003a0: af26 0c3d 31bb 683c b28a d23b 8e55 8a3c
000003b0: b5ce 403d 3190 063d 7060 213d 5c4f 953b
000003c0: 8da6 94bc 0c2b 16bc 4c45 a33c 77e6 173c
000003d0: 44ca 853c c637 033d 70fd c03a 334b 6a3d
000003e0: d5f7 d2b9 722e 253d 27c7 0cbb d674 183c
000003f0: 2587 093d db34 803c fcf5 ca3c b817 ad3c
0.049138017 -0.004596062 -0.0077406815 -0.02194911 0.025225379 0.00032059595 0.028587008 0.049769588
0.001891166 0.060814377 0.017726256 0.047349207 0.0033001287 0.012011135 0.00043826265 0.03546291
0.0238022 0.03532131 0.0051384773 -0.018616496 -0.009179023 0.0120288255 -0.009077413 0.0579668
0.020120637 0.008581 0.048856787 0.034120478 0.0470398 0.003973182 0.019383043 0.02104545
0.036092218 0.010876379 0.04371662 0.0004919696 -0.00012317528 -0.0013764809 0.027017523 -0.0022570903
0.027842842 0.021767855 -0.004335594 0.0491205 0.0013834541 0.03906659 0.012339202 0.0047405316
0.030900292 0.015204263 0.022756603 0.039308153 -0.002149241 0.006782402 -0.013636412 0.0125971055
0.012979303 0.030733349 0.016974082 0.019777028 0.044945035 0.026429737 0.048296135 0.02455493
0.011259409 0.039547235 0.024685567 0.028023917 0.025296587 0.002432037 -0.015259997 0.018810095
0.029121023 0.013403188 0.044256564 0.058348548 0.028977264 0.06876248 0.038978368 0.0487956
0.024720628 0.03558852 0.036698885 0.010666456 0.018431367 0.026228743 0.008162648 0.00215762
0.017283939 0.03533577 0.009382212 0.03431282 0.029238947 0.0047849063 0.049206864 0.014444646
0.02327868 -0.010028716 0.016020326 0.047006723 0.01702539 0.0027150325 0.035178255 -0.009108617
-0.0075448263 0.003661026 0.03736929 0.015638828 0.03644975 0.043395486 0.013935382 0.03584237
0.03359947 0.04499345 0.020413255 0.026010044 0.020527918 0.023268411 0.027168225 0.042666376
0.006691567 -0.018474037 -0.013922304 0.02830193 -0.0019151797 0.034362517 0.039341234 0.0032549049
0.039779264 0.021109177 0.029470693 0.008312646 0.012118957 0.030880503 0.033472214 0.02151711
0.020569487 0.0005552488 -0.0073727537 -0.0031930755 0.018906603 0.003936245 0.040951397 0.038615223
-0.0040026493 0.075489886 0.012689845 0.04492474 -0.0052533206 0.0105303 0.02929473 0.016803429
0.025823113 0.020350536 0.003101187 -0.017840685 -0.016202016 0.014665932 0.0050772014 0.044825334
0.04916098 -0.0028742352 0.055944912 0.03463421 0.036116473 0.008217333 -0.0024573014 0.02964255
0.03518132 0.03248532 0.022252887 -0.0064375713 0.002788928 -0.030478602 0.031054027 -0.0093077775
0.034208547 0.040013626 0.0082384385 0.042264342 0.02824169 0.037224222 0.036634337 0.017897535
0.014612566 0.020581914 0.018579256 0.03781506 -0.022775134 -0.008122023 -0.0053031133 0.030062554
-0.0105937505 0.022689102 0.040042743 -0.003943089 0.03772067 0.02430261 0.036723144 0.015239038
-0.0068365787 0.023874668 0.04260315 0.022202818 0.054131027 -0.016049894 0.0093074795 -0.018991172
-0.0030287437 0.01507927 0.018519385 0.039900154 0.004266066 0.043911636 0.015877781 0.05095631
0.010149103 0.010058487 0.004241726 0.019809237 0.023327138 0.027320877 0.014059097 0.0021814087
-0.0060359826 0.009541404 -0.0069468524 0.02183452 0.028557694 0.012746401 0.047486935 0.013877985
0.03421658 0.014204786 0.006425225 0.016886499 0.04707213 0.032852355 0.03939861 0.0045565795
-0.018145824 -0.009165537 0.019930504 0.009271256 0.0163318 0.03203561 0.0014723968 0.05720062
-0.0004023897 0.040327497 -0.0021481009 0.0093052 0.03357615 0.015650203 0.024775498 0.021129474

f.attention.value_proj.bias f4 [17]
00000000: d187 49bd a52c 803d bf86 5ebe bee5 553e
00000010: 1e1f a0bc b616 d1bd 311d d63c 2ba3 b33d
00000020: 1e6f 6a3d 2adb 703e 198d 0f3e 5e34 e8bc
00000030: ea61 363d 6eba 803d b9c8 c5bd c1ac 59be
00000040: 7f5c e4bc
-0.04920179 0.06258515 -0.21731089 0.20888421 -0.019546088 -0.1020941 0.026136966 0.08771356
0.057234876 0.23521104 0.14018668 -0.028345283 0.044526972 0.06285559 -0.096574254 -0.21257307
-0.027876137
